# ---------- BATCH RECIEPT ---------- #
Job ID: 17289634
Job Name: ttbar_submit_embed.sh
Submit Time: Wed  8 Jul 19:37:54 BST 2026
Node: node880.csf3.man.alces.network
User: q44882cb
Partition: gpuL
GPUs: 2
Working Directory: /mnt/iusers01/fse-ugpgt01/phy01/q44882cb/HEP_Sigmoids
# ----------------------------------- #

Job started at : 2026-07-08 19:38:02
Using cuda device with number of GPUs: 2
GroupedTransformer(
  (jet_proj): Linear(in_features=13, out_features=64, bias=True)
  (muon_proj): Linear(in_features=5, out_features=64, bias=True)
  (electron_proj): Linear(in_features=5, out_features=64, bias=True)
  (met_proj): Linear(in_features=2, out_features=64, bias=True)
  (transformer): TransformerEncoder(
    (layers): ModuleList(
      (0-3): 4 x TransformerEncoderLayer(
        (self_attn): MultiheadAttention(
          (out_proj): NonDynamicallyQuantizableLinear(in_features=64, out_features=64, bias=True)
        )
        (linear1): Linear(in_features=64, out_features=256, bias=True)
        (dropout): Dropout(p=0.1, inplace=False)
        (linear2): Linear(in_features=256, out_features=64, bias=True)
        (norm1): LayerNorm((64,), eps=1e-05, elementwise_affine=True)
        (norm2): LayerNorm((64,), eps=1e-05, elementwise_affine=True)
        (dropout1): Dropout(p=0.1, inplace=False)
        (dropout2): Dropout(p=0.1, inplace=False)
      )
    )
  )
  (classifier): Sequential(
    (0): Linear(in_features=64, out_features=128, bias=True)
    (1): LayerNorm((128,), eps=1e-05, elementwise_affine=True)
    (2): GELU(approximate='none')
    (3): Dropout(p=0.1, inplace=False)
    (4): Linear(in_features=128, out_features=1, bias=True)
  )
  (norm): LayerNorm((64,), eps=1e-05, elementwise_affine=True)
  (type_emb): Embedding(4, 64)
  (dropout): Dropout(p=0.1, inplace=False)
)
Beginning Training Loop
============================================================
Epoch 10/800 | Train Loss: 0.1263 | Val Loss: 0.1151 | Loss Diff : 0.0112 | Epoch Time: 26.75s | Total Time: 267.96s
Epoch 20/800 | Train Loss: 0.1174 | Val Loss: 0.1099 | Loss Diff : 0.0075 | Epoch Time: 26.75s | Total Time: 535.64s
Epoch 30/800 | Train Loss: 0.1138 | Val Loss: 0.1084 | Loss Diff : 0.0053 | Epoch Time: 26.74s | Total Time: 803.08s
…
