# ---------- BATCH RECIEPT ---------- #
Job ID: 17403995
Job Name: ttbar_mpos.sh
Submit Time: Thu  9 Jul 17:44:46 BST 2026
Node: node876.csf3.man.alces.network
User: q44882cb
Partition: gpuL
GPUs: 1
Working Directory: /mnt/iusers01/fse-ugpgt01/phy01/q44882cb/HEP_Sigmoids
# ----------------------------------- #

Job started at : 2026-07-09 17:46:04
Using cuda device with number of GPUs: 1
GroupedTransformer(
  (jet_proj): Linear(in_features=104, out_features=64, bias=True)
  (muon_proj): Linear(in_features=10, out_features=64, bias=True)
  (electron_proj): Linear(in_features=10, out_features=64, bias=True)
  (met_proj): Linear(in_features=2, out_features=64, bias=True)
  (transformer): TransformerEncoder(
    (layers): ModuleList(
      (0-3): 4 x TransformerEncoderLayer(
        (self_attn): MultiheadAttention(
          (out_proj): NonDynamicallyQuantizableLinear(in_features=64, out_features=64, bias=True)
        )
        (linear1): Linear(in_features=64, out_features=256, bias=True)
        (dropout): Dropout(p=0.1, inplace=False)
        (linear2): Linear(in_features=256, out_features=64, bias=True)
        (norm1): LayerNorm((64,), eps=1e-05, elementwise_affine=True)
        (norm2): LayerNorm((64,), eps=1e-05, elementwise_affine=True)
        (dropout1): Dropout(p=0.1, inplace=False)
        (dropout2): Dropout(p=0.1, inplace=False)
      )
    )
  )
  (classifier): Sequential(
    (0): Linear(in_features=64, out_features=128, bias=True)
    (1): LayerNorm((128,), eps=1e-05, elementwise_affine=True)
    (2): GELU(approximate='none')
    (3): Dropout(p=0.1, inplace=False)
    (4): Linear(in_features=128, out_features=64, bias=True)
    (5): LayerNorm((64,), eps=1e-05, elementwise_affine=True)
    (6): GELU(approximate='none')
    (7): Dropout(p=0.1, inplace=False)
    (8): Linear(in_features=64, out_features=32, bias=True)
    (9): LayerNorm((32,), eps=1e-05, elementwise_affine=True)
    (10): GELU(approximate='none')
    (11): Dropout(p=0.1, inplace=False)
    (12): Linear(in_features=32, out_features=1, bias=True)
  )
  (pooler): MultiheadAttention(
    (out_proj): NonDynamicallyQuantizableLinear(in_features=64, out_features=64, bias=True)
  )
)
Beginning Training Loop
============================================================
Epoch 10/800 | Train Loss: 0.1068 | Val Loss: 0.1016 | Loss Diff : 0.0053 | Epoch Time: 23.67s | Total Time: 245.54s
Epoch 20/800 | Train Loss: 0.1021 | Val Loss: 0.0979 | Loss Diff : 0.0042 | Epoch Time: 23.78s | Total Time: 483.13s
…
