# ---------- BATCH RECIEPT ---------- #
Job ID: 17263087
Job Name: ttbar_submit_embed.sh
Submit Time: Wed  8 Jul 12:09:12 BST 2026
Node: node880.csf3.man.alces.network
User: q44882cb
Partition: gpuL
GPUs: 2
Working Directory: /mnt/iusers01/fse-ugpgt01/phy01/q44882cb/HEP_Sigmoids
# ----------------------------------- #

Job started at : 2026-07-08 12:09:16
Using cuda device with number of GPUs: 2
GroupedTransformer(
  (jet_proj): Linear(in_features=13, out_features=64, bias=True)
  (muon_proj): Linear(in_features=5, out_features=64, bias=True)
  (electron_proj): Linear(in_features=5, out_features=64, bias=True)
  (met_proj): Linear(in_features=2, out_features=64, bias=True)
  (transformer): TransformerEncoder(
    (layers): ModuleList(
      (0-3): 4 x TransformerEncoderLayer(
        (self_attn): MultiheadAttention(
          (out_proj): NonDynamicallyQuantizableLinear(in_features=64, out_features=64, bias=True)
        )
        (linear1): Linear(in_features=64, out_features=256, bias=True)
        (dropout): Dropout(p=0.1, inplace=False)
        (linear2): Linear(in_features=256, out_features=64, bias=True)
        (norm1): LayerNorm((64,), eps=1e-05, elementwise_affine=True)
        (norm2): LayerNorm((64,), eps=1e-05, elementwise_affine=True)
        (dropout1): Dropout(p=0.1, inplace=False)
        (dropout2): Dropout(p=0.1, inplace=False)
      )
    )
  )
  (classifier): Sequential(
    (0): Linear(in_features=64, out_features=128, bias=True)
    (1): LayerNorm((128,), eps=1e-05, elementwise_affine=True)
    (2): GELU(approximate='none')
    (3): Dropout(p=0.1, inplace=False)
    (4): Linear(in_features=128, out_features=1, bias=True)
  )
  (norm): LayerNorm((64,), eps=1e-05, elementwise_affine=True)
  (type_emb): Embedding(4, 64)
  (dropout): Dropout(p=0.1, inplace=False)
)
Beginning Training Loop
============================================================
Epoch 10/200 | Train Loss: 0.1556 | Val Loss: 0.1482 | Loss Diff : 0.0074 | Epoch Time: 4.13s | Total Time: 41.85s
Epoch 20/200 | Train Loss: 0.1428 | Val Loss: 0.1313 | Loss Diff : 0.0115 | Epoch Time: 4.10s | Total Time: 83.00s
Epoch 30/200 | Train Loss: 0.1356 | Val Loss: 0.1281 | Loss Diff : 0.0075 | Epoch Time: 4.09s | Total Time: 124.11s
…
