# ---------- BATCH RECIEPT ---------- #
Job ID: 17760881
Job Name: scratch_train.sh
Submit Time: Tue 21 Jul 12:50:30 BST 2026
Job description: Direct Regression MHA
Node: node868.csf3.man.alces.network
User: m64196am
Partition: gpuL
GPUs: 1
Working Directory: /mnt/iusers01/fse-ugpgt01/phy01/m64196am
# ----------------------------------- #

Job started at : 2026-07-21 12:50:45
Using cuda device with number of GPUs: 1
Transformer(
  (leading_order_jet_proj): Linear(in_features=8, out_features=64, bias=True)
  (second_order_jet_proj): Linear(in_features=8, out_features=64, bias=True)
  (third_order_jet_proj): Linear(in_features=8, out_features=64, bias=True)
  (fourth_order_jet_proj): Linear(in_features=8, out_features=64, bias=True)
  (muon_proj): Linear(in_features=10, out_features=64, bias=True)
  (electron_proj): Linear(in_features=10, out_features=64, bias=True)
  (met_proj): Linear(in_features=2, out_features=64, bias=True)
  (transformer): TransformerEncoder(
    (layers): ModuleList(
      (0-3): 4 x TransformerEncoderLayer(
        (self_attn): MultiheadAttention(
          (out_proj): NonDynamicallyQuantizableLinear(in_features=64, out_features=64, bias=True)
        )
        (linear1): Linear(in_features=64, out_features=256, bias=True)
        (dropout): Dropout(p=0.1, inplace=False)
        (linear2): Linear(in_features=256, out_features=64, bias=True)
        (norm1): LayerNorm((64,), eps=1e-05, elementwise_affine=True)
        (norm2): LayerNorm((64,), eps=1e-05, elementwise_affine=True)
        (dropout1): Dropout(p=0.1, inplace=False)
        (dropout2): Dropout(p=0.1, inplace=False)
      )
    )
  )
  (pool): AttentionPooling(
    (attention): Linear(in_features=64, out_features=1, bias=True)
  )
  (classifier): Sequential(
    (0): Linear(in_features=64, out_features=128, bias=True)
    (1): LayerNorm((128,), eps=1e-05, elementwise_affine=True)
    (2): GELU(approximate='none')
    (3): Dropout(p=0.1, inplace=False)
    (4): Linear(in_features=128, out_features=64, bias=True)
    (5): LayerNorm((64,), eps=1e-05, elementwise_affine=True)
    (6): GELU(approximate='none')
    (7): Dropout(p=0.1, inplace=False)
    (8): Linear(in_features=64, out_features=32, bias=True)
    (9): LayerNorm((32,), eps=1e-05, elementwise_affine=True)
    (10): GELU(approximate='none')
    (11): Dropout(p=0.1, inplace=False)
    (12): Linear(in_features=32, out_features=1, bias=True)
  )
)


============================================================
Beginning Training Loop
============================================================
Epoch 1/150 | Train Loss: 0.1474 | Val Loss: 0.1177 | Loss Diff : 0.0297 | Epoch Time: 8.51s | Total Time: 8.51s
Epoch 2/150 | Train Loss: 0.1211 | Val Loss: 0.1123 | Loss Diff : 0.0088 | Epoch Time: 8.23s | Total Time: 16.73s
…
